…
Region Avg IOU: 0.461598, Class: 0.667611, Obj: 0.222562, No Obj: 0.019015, Avg Recall: 0.333333,  count: 9
Region Avg IOU: 0.424849, Class: 0.669921, Obj: 0.123884, No Obj: 0.018397, Avg Recall: 0.272727,  count: 11
^C
]0;tramsys@a103: ~/Desktop/darknet [01;32mtramsys@a103[00m:[01;34m~/Desktop/darknet[00m$ exit
Script started on 2017å¹?2æœ?8æ—?æ˜ŸæœŸå›?20æ—?4åˆ?2ç§?]0;tramsys@a103: ~/Desktop/darknet [01;32mtramsys@a103[00m:[01;34m~/Desktop/darknet[00m$ ./darknet detector train cfg/voc.data cfg/yolo-v 
oc.cfg darknet19_448.conv.23
yolo-voc
layer     filters    size              input                output
    0 conv     32  3 x 3 / 1   224 x 224 x   3   ->   224 x 224 x  32
    1 max          2 x 2 / 2   224 x 224 x  32   ->   112 x 112 x  32
    2 conv     64  3 x 3 / 1   112 x 112 x  32   ->   112 x 112 x  64
    3 max          2 x 2 / 2   112 x 112 x  64   ->    56 x  56 x  64
    4 conv    128  3 x 3 / 1    56 x  56 x  64   ->    56 x  56 x 128
    5 conv     64  1 x 1 / 1    56 x  56 x 128   ->    56 x  56 x  64
    6 conv    128  3 x 3 / 1    56 x  56 x  64   ->    56 x  56 x 128
    7 max          2 x 2 / 2    56 x  56 x 128   ->    28 x  28 x 128
    8 conv    256  3 x 3 / 1    28 x  28 x 128   ->    28 x  28 x 256
    9 conv    128  1 x 1 / 1    28 x  28 x 256   ->    28 x  28 x 128
   10 conv    256  3 x 3 / 1    28 x  28 x 128   ->    28 x  28 x 256
   11 max          2 x 2 / 2    28 x  28 x 256   ->    14 x  14 x 256
   12 conv    512  3 x 3 / 1    14 x  14 x 256   ->    14 x  14 x 512
   13 conv    256  1 x 1 / 1    14 x  14 x 512   ->    14 x  14 x 256
   14 conv    512  3 x 3 / 1    14 x  14 x 256   ->    14 x  14 x 512
   15 conv    256  1 x 1 / 1    14 x  14 x 512   ->    14 x  14 x 256
   16 conv    512  3 x 3 / 1    14 x  14 x 256   ->    14 x  14 x 512
   17 max          2 x 2 / 2    14 x  14 x 512   ->     7 x   7 x 512
   18 conv   1024  3 x 3 / 1     7 x   7 x 512   ->     7 x   7 x1024
   19 conv    512  1 x 1 / 1     7 x   7 x1024   ->     7 x   7 x 512
   20 conv   1024  3 x 3 / 1     7 x   7 x 512   ->     7 x   7 x1024
   21 conv    512  1 x 1 / 1     7 x   7 x1024   ->     7 x   7 x 512
   22 conv   1024  3 x 3 / 1     7 x   7 x 512   ->     7 x   7 x1024
   23 conv   1024  3 x 3 / 1     7 x   7 x1024   ->     7 x   7 x1024
   24 conv   1024  3 x 3 / 1     7 x   7 x1024   ->     7 x   7 x1024
   25 route  16
   26 reorg              / 2    14 x  14 x 512   ->     7 x   7 x2048
   27 route  26 24
   28 conv   1024  3 x 3 / 1     7 x   7 x3072   ->     7 x   7 x1024
   29 conv     45  1 x 1 / 1     7 x   7 x1024   ->     7 x   7 x  45
   30 detection
Loading weights from darknet19_448.conv.23...Done!
Learning Rate: 0.0001, Momentum: 0.9, Decay: 0.0005
Cannot load image "/home/tramsys/Desktop/darknet/scripts/coco2017/train2017/JPEGImages/000000301187.jpg"
STB Reason: can't fopen
Cannot load image "/home/tramsys/Desktop/darknet/scripts/coco2017/train2017/JPEGImages/000000182933.jpg"
STB Reason: can't fopen
]0;tramsys@a103: ~/Desktop/darknet [01;32mtramsys@a103[00m:[01;34m~/Desktop/darknet[00m$  ./darknet detector train cfg/voc.data cfg/yolo- 
voc.cfg darknet19_448.conv.23
yolo-voc
layer     filters    size              input                output
    0 conv     32  3 x 3 / 1   224 x 224 x   3   ->   224 x 224 x  32
    1 max          2 x 2 / 2   224 x 224 x  32   ->   112 x 112 x  32
    2 conv     64  3 x 3 / 1   112 x 112 x  32   ->   112 x 112 x  64
    3 max          2 x 2 / 2   112 x 112 x  64   ->    56 x  56 x  64
    4 conv    128  3 x 3 / 1    56 x  56 x  64   ->    56 x  56 x 128
    5 conv     64  1 x 1 / 1    56 x  56 x 128   ->    56 x  56 x  64
    6 conv    128  3 x 3 / 1    56 x  56 x  64   ->    56 x  56 x 128
    7 max          2 x 2 / 2    56 x  56 x 128   ->    28 x  28 x 128
    8 conv    256  3 x 3 / 1    28 x  28 x 128   ->    28 x  28 x 256
    9 conv    128  1 x 1 / 1    28 x  28 x 256   ->    28 x  28 x 128
   10 conv    256  3 x 3 / 1    28 x  28 x 128   ->    28 x  28 x 256
   11 max          2 x 2 / 2    28 x  28 x 256   ->    14 x  14 x 256
   12 conv    512  3 x 3 / 1    14 x  14 x 256   ->    14 x  14 x 512
   13 conv    256  1 x 1 / 1    14 x  14 x 512   ->    14 x  14 x 256
   14 conv    512  3 x 3 / 1    14 x  14 x 256   ->    14 x  14 x 512
   15 conv    256  1 x 1 / 1    14 x  14 x 512   ->    14 x  14 x 256
   16 conv    512  3 x 3 / 1    14 x  14 x 256   ->    14 x  14 x 512
   17 max          2 x 2 / 2    14 x  14 x 512   ->     7 x   7 x 512
   18 conv   1024  3 x 3 / 1     7 x   7 x 512   ->     7 x   7 x1024
   19 conv    512  1 x 1 / 1     7 x   7 x1024   ->     7 x   7 x 512
   20 conv   1024  3 x 3 / 1     7 x   7 x 512   ->     7 x   7 x1024
   21 conv    512  1 x 1 / 1     7 x   7 x1024   ->     7 x   7 x 512
   22 conv   1024  3 x 3 / 1     7 x   7 x 512   ->     7 x   7 x1024
   23 conv   1024  3 x 3 / 1     7 x   7 x1024   ->     7 x   7 x1024
   24 conv   1024  3 x 3 / 1     7 x   7 x1024   ->     7 x   7 x1024
   25 route  16
   26 reorg              / 2    14 x  14 x 512   ->     7 x   7 x2048
   27 route  26 24
   28 conv   1024  3 x 3 / 1     7 x   7 x3072   ->     7 x   7 x1024
   29 conv     45  1 x 1 / 1     7 x   7 x1024   ->     7 x   7 x  45
   30 detection
Loading weights from darknet19_448.conv.23...Done!
Learning Rate: 0.0001, Momentum: 0.9, Decay: 0.0005
Loaded: 0.494475 seconds
Region Avg IOU: 0.244326, Class: 0.236142, Obj: 0.423941, No Obj: 0.508827, Avg Recall: 0.071429,  count: 14
Region Avg IOU: 0.127005, Class: 0.264208, Obj: 0.473267, No Obj: 0.509160, Avg Recall: 0.000000,  count: 29
…
Loaded: 0.000080 seconds
Region Avg IOU: 0.348633, Class: 0.982183, Obj: 0.158987, No Obj: 0.018717, Avg Recall: 0.320000,  count: 25
Region Avg IOU: 0.288403, Class: 0.931135, Obj: 0.169727, No Obj: 0.017615, Avg Recall: 0.368421,  count: 19
Region Avg IOU: 0.538078, Class: 0.986557, ObjScript started on 2017å¹?2æœ?9æ—?æ˜ŸæœŸäº?12æ—?3åˆ?5ç§?]0;tramsys@a103: ~/Desktop/darknet [01;32mtramsys@a103[00m:[01;34m~/Desktop/darknet[00m$ ./darknet detector train cfg/voc.data cfg/yolo-v 
oc.cfg darknet19_448.conv.23
yolo-voc
layer     filters    size              input                output
    0 conv     32  3 x 3 / 1   224 x 224 x   3   ->   224 x 224 x  32
    1 max          2 x 2 / 2   224 x 224 x  32   ->   112 x 112 x  32
    2 conv     64  3 x 3 / 1   112 x 112 x  32   ->   112 x 112 x  64
    3 max          2 x 2 / 2   112 x 112 x  64   ->    56 x  56 x  64
    4 conv    128  3 x 3 / 1    56 x  56 x  64   ->    56 x  56 x 128
    5 conv     64  1 x 1 / 1    56 x  56 x 128   ->    56 x  56 x  64
    6 conv    128  3 x 3 / 1    56 x  56 x  64   ->    56 x  56 x 128
    7 max          2 x 2 / 2    56 x  56 x 128   ->    28 x  28 x 128
    8 conv    256  3 x 3 / 1    28 x  28 x 128   ->    28 x  28 x 256
    9 conv    128  1 x 1 / 1    28 x  28 x 256   ->    28 x  28 x 128
   10 conv    256  3 x 3 / 1    28 x  28 x 128   ->    28 x  28 x 256
   11 max          2 x 2 / 2    28 x  28 x 256   ->    14 x  14 x 256
   12 conv    512  3 x 3 / 1    14 x  14 x 256   ->    14 x  14 x 512
   13 conv    256  1 x 1 / 1    14 x  14 x 512   ->    14 x  14 x 256
   14 conv    512  3 x 3 / 1    14 x  14 x 256   ->    14 x  14 x 512
   15 conv    256  1 x 1 / 1    14 x  14 x 512   ->    14 x  14 x 256
   16 conv    512  3 x 3 / 1    14 x  14 x 256   ->    14 x  14 x 512
   17 max          2 x 2 / 2    14 x  14 x 512   ->     7 x   7 x 512
   18 conv   1024  3 x 3 / 1     7 x   7 x 512   ->     7 x   7 x1024
   19 conv    512  1 x 1 / 1     7 x   7 x1024   ->     7 x   7 x 512
   20 conv   1024  3 x 3 / 1     7 x   7 x 512   ->     7 x   7 x1024
   21 conv    512  1 x 1 / 1     7 x   7 x1024   ->     7 x   7 x 512
   22 conv   1024  3 x 3 / 1     7 x   7 x 512   ->     7 x   7 x1024
   23 conv   1024  3 x 3 / 1     7 x   7 x1024   ->     7 x   7 x1024
   24 conv   1024  3 x 3 / 1     7 x   7 x1024   ->     7 x   7 x1024
   25 route  16
   26 reorg              / 2    14 x  14 x 512   ->     7 x   7 x2048
   27 route  26 24
   28 conv   1024  3 x 3 / 1     7 x   7 x3072   ->     7 x   7 x1024
   29 conv     45  1 x 1 / 1     7 x   7 x1024   ->     7 x   7 x  45
   30 detection
Loading weights from darknet19_448.conv.23...Done!
Learning Rate: 0.0001, Momentum: 0.9, Decay: 0.0005
Loaded: 0.394435 seconds
Region Avg IOU: 0.293855, Class: 0.365074, Obj: 0.378487, No Obj: 0.467105, Avg Recall: 0.125000,  count: 8
Region Avg IOU: 0.354981, Class: 0.206908, Obj: 0.530914, No Obj: 0.467797, Avg Recall: 0.454545,  count: 11
…
